…
+    "                 hidden_dim1 = 20, hidden_dim2 = 768, hidden_dim3 = 128, hidden_dim4 = 64,\n",
+    "                 num_layers1 = 1, num_layers2 = 1, output_dim1 = 10, output_dim2 = 256)\n",
     "\n",
     "\n",
     "    \n",
@@ -754,8 +2130,8 @@
   },
   {
    "cell_type": "code",
-   "execution_count": 75,
-   "id": "79b6a8b9",
+   "execution_count": 317,
+   "id": "650829c7",
    "metadata": {
     "collapsed": true
    },
@@ -765,7 +2141,7 @@
      "output_type": "stream",
      "text": [
       "SiameseModel(\n",
-      "  (text_encoder): RobertaModel(\n",
+      "  (roberta): RobertaModel(\n",
       "    (embeddings): RobertaEmbeddings(\n",
       "      (word_embeddings): Embedding(50265, 1024, padding_idx=1)\n",
       "      (position_embeddings): Embedding(514, 1024, padding_idx=1)\n",
@@ -1358,440 +2734,28 @@
       "      (activation): Tanh()\n",
       "    )\n",
       "  )\n",
-      "  (lstm1): LSTM(8, 10, batch_first=True)\n",
-      "  (lstm2): LSTM(768, 800, batch_first=True)\n",
-      "  (fc1): Linear(in_features=10, out_features=50, bias=True)\n",
-      "  (fc2): Linear(in_features=800, out_features=50, bias=True)\n",
-      "  (fc3): Linear(in_features=100, out_features=500, bias=True)\n",
-      "  (fc4): Linear(in_features=500, out_features=3, bias=True)\n",
+      "  (lstm1): LSTM(8, 20, batch_first=True)\n",
+      "  (lstm2): LSTM(1024, 768, batch_first=True)\n",
+      "  (fc1): Linear(in_features=20, out_features=10, bias=True)\n",
+      "  (fc2): Linear(in_features=768, out_features=256, bias=True)\n",
+      "  (fc3): Linear(in_features=266, out_features=128, bias=True)\n",
+      "  (fc4): Linear(in_features=128, out_features=64, bias=True)\n",
+      "  (fc5): Linear(in_features=64, out_features=3, bias=True)\n",
       ")\n",
-      "407\n",
-      "torch.Size([50265, 1024])\n",
-      "torch.Size([514, 1024])\n",
-      "torch.Size([1, 1024])\n",
-      "torch.Size([1024])\n",
-      "torch.Size([1024])\n",
-      "torch.Size([1024, 1024])\n",
-      "torch.Size([1024])\n",
-      "torch.Size([1024, 1024])\n",
-      "torch.Size([1024])\n",
-      "torch.Size([1024, 1024])\n",
…
