…
+    "        e2 = torch.zeros(1,max_text_per_iter,1024)\n",
     "        \n",
     "        for k in range(ids.shape[1]):\n",
     "            seq_ids = ids[:,k,:]\n",
@@ -876,10 +877,620 @@
   },
   {
    "cell_type": "code",
-   "execution_count": null,
-   "id": "64f7e60f",
+   "execution_count": 36,
+   "id": "c779372d",
    "metadata": {},
-   "outputs": [],
+   "outputs": [
+    {
+     "name": "stdout",
+     "output_type": "stream",
+     "text": [
+      "SiameseModel(\n",
+      "  (roberta): RobertaModel(\n",
+      "    (embeddings): RobertaEmbeddings(\n",
+      "      (word_embeddings): Embedding(50265, 1024, padding_idx=1)\n",
+      "      (position_embeddings): Embedding(514, 1024, padding_idx=1)\n",
+      "      (token_type_embeddings): Embedding(1, 1024)\n",
+      "      (LayerNorm): LayerNorm((1024,), eps=1e-05, elementwise_affine=True)\n",
+      "      (dropout): Dropout(p=0.1, inplace=False)\n",
+      "    )\n",
+      "    (encoder): RobertaEncoder(\n",
+      "      (layer): ModuleList(\n",
+      "        (0): RobertaLayer(\n",
+      "          (attention): RobertaAttention(\n",
+      "            (self): RobertaSelfAttention(\n",
+      "              (query): Linear(in_features=1024, out_features=1024, bias=True)\n",
+      "              (key): Linear(in_features=1024, out_features=1024, bias=True)\n",
+      "              (value): Linear(in_features=1024, out_features=1024, bias=True)\n",
+      "              (dropout): Dropout(p=0.1, inplace=False)\n",
+      "            )\n",
+      "            (output): RobertaSelfOutput(\n",
+      "              (dense): Linear(in_features=1024, out_features=1024, bias=True)\n",
+      "              (LayerNorm): LayerNorm((1024,), eps=1e-05, elementwise_affine=True)\n",
+      "              (dropout): Dropout(p=0.1, inplace=False)\n",
+      "            )\n",
+      "          )\n",
+      "          (intermediate): RobertaIntermediate(\n",
+      "            (dense): Linear(in_features=1024, out_features=4096, bias=True)\n",
+      "            (intermediate_act_fn): GELUActivation()\n",
+      "          )\n",
+      "          (output): RobertaOutput(\n",
+      "            (dense): Linear(in_features=4096, out_features=1024, bias=True)\n",
+      "            (LayerNorm): LayerNorm((1024,), eps=1e-05, elementwise_affine=True)\n",
+      "            (dropout): Dropout(p=0.1, inplace=False)\n",
+      "          )\n",
+      "        )\n",
+      "        (1): RobertaLayer(\n",
+      "          (attention): RobertaAttention(\n",
+      "            (self): RobertaSelfAttention(\n",
+      "              (query): Linear(in_features=1024, out_features=1024, bias=True)\n",
+      "              (key): Linear(in_features=1024, out_features=1024, bias=True)\n",
+      "              (value): Linear(in_features=1024, out_features=1024, bias=True)\n",
+      "              (dropout): Dropout(p=0.1, inplace=False)\n",
+      "            )\n",
+      "            (output): RobertaSelfOutput(\n",
+      "              (dense): Linear(in_features=1024, out_features=1024, bias=True)\n",
+      "              (LayerNorm): LayerNorm((1024,), eps=1e-05, elementwise_affine=True)\n",
+      "              (dropout): Dropout(p=0.1, inplace=False)\n",
+      "            )\n",
+      "          )\n",
+      "          (intermediate): RobertaIntermediate(\n",
+      "            (dense): Linear(in_features=1024, out_features=4096, bias=True)\n",
+      "            (intermediate_act_fn): GELUActivation()\n",
+      "          )\n",
+      "          (output): RobertaOutput(\n",
+      "            (dense): Linear(in_features=4096, out_features=1024, bias=True)\n",
+      "            (LayerNorm): LayerNorm((1024,), eps=1e-05, elementwise_affine=True)\n",
+      "            (dropout): Dropout(p=0.1, inplace=False)\n",
+      "          )\n",
+      "        )\n",
+      "        (2): RobertaLayer(\n",
+      "          (attention): RobertaAttention(\n",
+      "            (self): RobertaSelfAttention(\n",
+      "              (query): Linear(in_features=1024, out_features=1024, bias=True)\n",
+      "              (key): Linear(in_features=1024, out_features=1024, bias=True)\n",
+      "              (value): Linear(in_features=1024, out_features=1024, bias=True)\n",
+      "              (dropout): Dropout(p=0.1, inplace=False)\n",
+      "            )\n",
+      "            (output): RobertaSelfOutput(\n",
+      "              (dense): Linear(in_features=1024, out_features=1024, bias=True)\n",
+      "              (LayerNorm): LayerNorm((1024,), eps=1e-05, elementwise_affine=True)\n",
+      "              (dropout): Dropout(p=0.1, inplace=False)\n",
+      "            )\n",
+      "          )\n",
+      "          (intermediate): RobertaIntermediate(\n",
+      "            (dense): Linear(in_features=1024, out_features=4096, bias=True)\n",
+      "            (intermediate_act_fn): GELUActivation()\n",
+      "          )\n",
+      "          (output): RobertaOutput(\n",
+      "            (dense): Linear(in_features=4096, out_features=1024, bias=True)\n",
+      "            (LayerNorm): LayerNorm((1024,), eps=1e-05, elementwise_affine=True)\n",
+      "            (dropout): Dropout(p=0.1, inplace=False)\n",
+      "          )\n",
+      "        )\n",
+      "        (3): RobertaLayer(\n",
+      "          (attention): RobertaAttention(\n",
+      "            (self): RobertaSelfAttention(\n",
+      "              (query): Linear(in_features=1024, out_features=1024, bias=True)\n",
+      "              (key): Linear(in_features=1024, out_features=1024, bias=True)\n",
+      "              (value): Linear(in_features=1024, out_features=1024, bias=True)\n",
+      "              (dropout): Dropout(p=0.1, inplace=False)\n",
+      "            )\n",
+      "            (output): RobertaSelfOutput(\n",
+      "              (dense): Linear(in_features=1024, out_features=1024, bias=True)\n",
+      "              (LayerNorm): LayerNorm((1024,), eps=1e-05, elementwise_affine=True)\n",
+      "              (dropout): Dropout(p=0.1, inplace=False)\n",
+      "            )\n",
+      "          )\n",
+      "          (intermediate): RobertaIntermediate(\n",
+      "            (dense): Linear(in_features=1024, out_features=4096, bias=True)\n",
+      "            (intermediate_act_fn): GELUActivation()\n",
+      "          )\n",
+      "          (output): RobertaOutput(\n",
+      "            (dense): Linear(in_features=4096, out_features=1024, bias=True)\n",
+      "            (LayerNorm): LayerNorm((1024,), eps=1e-05, elementwise_affine=True)\n",
+      "            (dropout): Dropout(p=0.1, inplace=False)\n",
+      "          )\n",
+      "        )\n",
+      "        (4): RobertaLayer(\n",
+      "          (attention): RobertaAttention(\n",
+      "            (self): RobertaSelfAttention(\n",
+      "              (query): Linear(in_features=1024, out_features=1024, bias=True)\n",
+      "              (key): Linear(in_features=1024, out_features=1024, bias=True)\n",
+      "              (value): Linear(in_features=1024, out_features=1024, bias=True)\n",
+      "              (dropout): Dropout(p=0.1, inplace=False)\n",
+      "            )\n",
+      "            (output): RobertaSelfOutput(\n",
+      "              (dense): Linear(in_features=1024, out_features=1024, bias=True)\n",
+      "              (LayerNorm): LayerNorm((1024,), eps=1e-05, elementwise_affine=True)\n",
+      "              (dropout): Dropout(p=0.1, inplace=False)\n",
+      "            )\n",
+      "          )\n",
+      "          (intermediate): RobertaIntermediate(\n",
+      "            (dense): Linear(in_features=1024, out_features=4096, bias=True)\n",
+      "            (intermediate_act_fn): GELUActivation()\n",
+      "          )\n",
+      "          (output): RobertaOutput(\n",
+      "            (dense): Linear(in_features=4096, out_features=1024, bias=True)\n",
+      "            (LayerNorm): LayerNorm((1024,), eps=1e-05, elementwise_affine=True)\n",
+      "            (dropout): Dropout(p=0.1, inplace=False)\n",
+      "          )\n",
+      "        )\n",
+      "        (5): RobertaLayer(\n",
+      "          (attention): RobertaAttention(\n",
+      "            (self): RobertaSelfAttention(\n",
+      "              (query): Linear(in_features=1024, out_features=1024, bias=True)\n",
+      "              (key): Linear(in_features=1024, out_features=1024, bias=True)\n",
+      "              (value): Linear(in_features=1024, out_features=1024, bias=True)\n",
+      "              (dropout): Dropout(p=0.1, inplace=False)\n",
+      "            )\n",
+      "            (output): RobertaSelfOutput(\n",
+      "              (dense): Linear(in_features=1024, out_features=1024, bias=True)\n",
+      "              (LayerNorm): LayerNorm((1024,), eps=1e-05, elementwise_affine=True)\n",
+      "              (dropout): Dropout(p=0.1, inplace=False)\n",
+      "            )\n",
+      "          )\n",
+      "          (intermediate): RobertaIntermediate(\n",
+      "            (dense): Linear(in_features=1024, out_features=4096, bias=True)\n",
+      "            (intermediate_act_fn): GELUActivation()\n",
+      "          )\n",
+      "          (output): RobertaOutput(\n",
+      "            (dense): Linear(in_features=4096, out_features=1024, bias=True)\n",
+      "            (LayerNorm): LayerNorm((1024,), eps=1e-05, elementwise_affine=True)\n",
+      "            (dropout): Dropout(p=0.1, inplace=False)\n",
+      "          )\n",
+      "        )\n",
+      "        (6): RobertaLayer(\n",
+      "          (attention): RobertaAttention(\n",
+      "            (self): RobertaSelfAttention(\n",
+      "              (query): Linear(in_features=1024, out_features=1024, bias=True)\n",
+      "              (key): Linear(in_features=1024, out_features=1024, bias=True)\n",
+      "              (value): Linear(in_features=1024, out_features=1024, bias=True)\n",
+      "              (dropout): Dropout(p=0.1, inplace=False)\n",
+      "            )\n",
+      "            (output): RobertaSelfOutput(\n",
+      "              (dense): Linear(in_features=1024, out_features=1024, bias=True)\n",
+      "              (LayerNorm): LayerNorm((1024,), eps=1e-05, elementwise_affine=True)\n",
+      "              (dropout): Dropout(p=0.1, inplace=False)\n",
+      "            )\n",
+      "          )\n",
+      "          (intermediate): RobertaIntermediate(\n",
+      "            (dense): Linear(in_features=1024, out_features=4096, bias=True)\n",
+      "            (intermediate_act_fn): GELUActivation()\n",
+      "          )\n",
+      "          (output): RobertaOutput(\n",
+      "            (dense): Linear(in_features=4096, out_features=1024, bias=True)\n",
+      "            (LayerNorm): LayerNorm((1024,), eps=1e-05, elementwise_affine=True)\n",
+      "            (dropout): Dropout(p=0.1, inplace=False)\n",
+      "          )\n",
+      "        )\n",
+      "        (7): RobertaLayer(\n",
+      "          (attention): RobertaAttention(\n",
+      "            (self): RobertaSelfAttention(\n",
+      "              (query): Linear(in_features=1024, out_features=1024, bias=True)\n",
+      "              (key): Linear(in_features=1024, out_features=1024, bias=True)\n",
+      "              (value): Linear(in_features=1024, out_features=1024, bias=True)\n",
+      "              (dropout): Dropout(p=0.1, inplace=False)\n",
+      "            )\n",
+      "            (output): RobertaSelfOutput(\n",
+      "              (dense): Linear(in_features=1024, out_features=1024, bias=True)\n",
+      "              (LayerNorm): LayerNorm((1024,), eps=1e-05, elementwise_affine=True)\n",
+      "              (dropout): Dropout(p=0.1, inplace=False)\n",
+      "            )\n",
+      "          )\n",
+      "          (intermediate): RobertaIntermediate(\n",
+      "            (dense): Linear(in_features=1024, out_features=4096, bias=True)\n",
+      "            (intermediate_act_fn): GELUActivation()\n",
+      "          )\n",
+      "          (output): RobertaOutput(\n",
+      "            (dense): Linear(in_features=4096, out_features=1024, bias=True)\n",
+      "            (LayerNorm): LayerNorm((1024,), eps=1e-05, elementwise_affine=True)\n",
+      "            (dropout): Dropout(p=0.1, inplace=False)\n",
+      "          )\n",
+      "        )\n",
+      "        (8): RobertaLayer(\n",
+      "          (attention): RobertaAttention(\n",
+      "            (self): RobertaSelfAttention(\n",
+      "              (query): Linear(in_features=1024, out_features=1024, bias=True)\n",
+      "              (key): Linear(in_features=1024, out_features=1024, bias=True)\n",
+      "              (value): Linear(in_features=1024, out_features=1024, bias=True)\n",
+      "              (dropout): Dropout(p=0.1, inplace=False)\n",
+      "            )\n",
+      "            (output): RobertaSelfOutput(\n",
+      "              (dense): Linear(in_features=1024, out_features=1024, bias=True)\n",
+      "              (LayerNorm): LayerNorm((1024,), eps=1e-05, elementwise_affine=True)\n",
+      "              (dropout): Dropout(p=0.1, inplace=False)\n",
+      "            )\n",
+      "          )\n",
+      "          (intermediate): RobertaIntermediate(\n",
+      "            (dense): Linear(in_features=1024, out_features=4096, bias=True)\n",
+      "            (intermediate_act_fn): GELUActivation()\n",
+      "          )\n",
+      "          (output): RobertaOutput(\n",
+      "            (dense): Linear(in_features=4096, out_features=1024, bias=True)\n",
+      "            (LayerNorm): LayerNorm((1024,), eps=1e-05, elementwise_affine=True)\n",
+      "            (dropout): Dropout(p=0.1, inplace=False)\n",
+      "          )\n",
+      "        )\n",
+      "        (9): RobertaLayer(\n",
+      "          (attention): RobertaAttention(\n",
+      "            (self): RobertaSelfAttention(\n",
+      "              (query): Linear(in_features=1024, out_features=1024, bias=True)\n",
+      "              (key): Linear(in_features=1024, out_features=1024, bias=True)\n",
+      "              (value): Linear(in_features=1024, out_features=1024, bias=True)\n",
+      "              (dropout): Dropout(p=0.1, inplace=False)\n",
+      "            )\n",
+      "            (output): RobertaSelfOutput(\n",
+      "              (dense): Linear(in_features=1024, out_features=1024, bias=True)\n",
+      "              (LayerNorm): LayerNorm((1024,), eps=1e-05, elementwise_affine=True)\n",
+      "              (dropout): Dropout(p=0.1, inplace=False)\n",
+      "            )\n",
+      "          )\n",
+      "          (intermediate): RobertaIntermediate(\n",
+      "            (dense): Linear(in_features=1024, out_features=4096, bias=True)\n",
+      "            (intermediate_act_fn): GELUActivation()\n",
+      "          )\n",
+      "          (output): RobertaOutput(\n",
+      "            (dense): Linear(in_features=4096, out_features=1024, bias=True)\n",
+      "            (LayerNorm): LayerNorm((1024,), eps=1e-05, elementwise_affine=True)\n",
+      "            (dropout): Dropout(p=0.1, inplace=False)\n",
+      "          )\n",
+      "        )\n",
+      "        (10): RobertaLayer(\n",
+      "          (attention): RobertaAttention(\n",
+      "            (self): RobertaSelfAttention(\n",
+      "              (query): Linear(in_features=1024, out_features=1024, bias=True)\n",
+      "              (key): Linear(in_features=1024, out_features=1024, bias=True)\n",
+      "              (value): Linear(in_features=1024, out_features=1024, bias=True)\n",
+      "              (dropout): Dropout(p=0.1, inplace=False)\n",
+      "            )\n",
+      "            (output): RobertaSelfOutput(\n",
+      "              (dense): Linear(in_features=1024, out_features=1024, bias=True)\n",
+      "              (LayerNorm): LayerNorm((1024,), eps=1e-05, elementwise_affine=True)\n",
+      "              (dropout): Dropout(p=0.1, inplace=False)\n",
+      "            )\n",
+      "          )\n",
+      "          (intermediate): RobertaIntermediate(\n",
+      "            (dense): Linear(in_features=1024, out_features=4096, bias=True)\n",
+      "            (intermediate_act_fn): GELUActivation()\n",
+      "          )\n",
+      "          (output): RobertaOutput(\n",
+      "            (dense): Linear(in_features=4096, out_features=1024, bias=True)\n",
+      "            (LayerNorm): LayerNorm((1024,), eps=1e-05, elementwise_affine=True)\n",
+      "            (dropout): Dropout(p=0.1, inplace=False)\n",
+      "          )\n",
+      "        )\n",
+      "        (11): RobertaLayer(\n",
+      "          (attention): RobertaAttention(\n",
+      "            (self): RobertaSelfAttention(\n",
+      "              (query): Linear(in_features=1024, out_features=1024, bias=True)\n",
+      "              (key): Linear(in_features=1024, out_features=1024, bias=True)\n",
+      "              (value): Linear(in_features=1024, out_features=1024, bias=True)\n",
+      "              (dropout): Dropout(p=0.1, inplace=False)\n",
+      "            )\n",
+      "            (output): RobertaSelfOutput(\n",
+      "              (dense): Linear(in_features=1024, out_features=1024, bias=True)\n",
+      "              (LayerNorm): LayerNorm((1024,), eps=1e-05, elementwise_affine=True)\n",
+      "              (dropout): Dropout(p=0.1, inplace=False)\n",
+      "            )\n",
+      "          )\n",
+      "          (intermediate): RobertaIntermediate(\n",
+      "            (dense): Linear(in_features=1024, out_features=4096, bias=True)\n",
+      "            (intermediate_act_fn): GELUActivation()\n",
+      "          )\n",
+      "          (output): RobertaOutput(\n",
+      "            (dense): Linear(in_features=4096, out_features=1024, bias=True)\n",
+      "            (LayerNorm): LayerNorm((1024,), eps=1e-05, elementwise_affine=True)\n",
+      "            (dropout): Dropout(p=0.1, inplace=False)\n",
+      "          )\n",
+      "        )\n",
+      "        (12): RobertaLayer(\n",
+      "          (attention): RobertaAttention(\n",
+      "            (self): RobertaSelfAttention(\n",
+      "              (query): Linear(in_features=1024, out_features=1024, bias=True)\n",
+      "              (key): Linear(in_features=1024, out_features=1024, bias=True)\n",
+      "              (value): Linear(in_features=1024, out_features=1024, bias=True)\n",
+      "              (dropout): Dropout(p=0.1, inplace=False)\n",
+      "            )\n",
+      "            (output): RobertaSelfOutput(\n",
+      "              (dense): Linear(in_features=1024, out_features=1024, bias=True)\n",
+      "              (LayerNorm): LayerNorm((1024,), eps=1e-05, elementwise_affine=True)\n",
+      "              (dropout): Dropout(p=0.1, inplace=False)\n",
+      "            )\n",
+      "          )\n",
+      "          (intermediate): RobertaIntermediate(\n",
+      "            (dense): Linear(in_features=1024, out_features=4096, bias=True)\n",
+      "            (intermediate_act_fn): GELUActivation()\n",
+      "          )\n",
+      "          (output): RobertaOutput(\n",
+      "            (dense): Linear(in_features=4096, out_features=1024, bias=True)\n",
+      "            (LayerNorm): LayerNorm((1024,), eps=1e-05, elementwise_affine=True)\n",
+      "            (dropout): Dropout(p=0.1, inplace=False)\n",
+      "          )\n",
+      "        )\n",
+      "        (13): RobertaLayer(\n",
+      "          (attention): RobertaAttention(\n",
+      "            (self): RobertaSelfAttention(\n",
+      "              (query): Linear(in_features=1024, out_features=1024, bias=True)\n",
+      "              (key): Linear(in_features=1024, out_features=1024, bias=True)\n",
+      "              (value): Linear(in_features=1024, out_features=1024, bias=True)\n",
+      "              (dropout): Dropout(p=0.1, inplace=False)\n",
+      "            )\n",
+      "            (output): RobertaSelfOutput(\n",
+      "              (dense): Linear(in_features=1024, out_features=1024, bias=True)\n",
+      "              (LayerNorm): LayerNorm((1024,), eps=1e-05, elementwise_affine=True)\n",
+      "              (dropout): Dropout(p=0.1, inplace=False)\n",
+      "            )\n",
+      "          )\n",
+      "          (intermediate): RobertaIntermediate(\n",
+      "            (dense): Linear(in_features=1024, out_features=4096, bias=True)\n",
+      "            (intermediate_act_fn): GELUActivation()\n",
+      "          )\n",
+      "          (output): RobertaOutput(\n",
+      "            (dense): Linear(in_features=4096, out_features=1024, bias=True)\n",
+      "            (LayerNorm): LayerNorm((1024,), eps=1e-05, elementwise_affine=True)\n",
+      "            (dropout): Dropout(p=0.1, inplace=False)\n",
+      "          )\n",
+      "        )\n",
+      "        (14): RobertaLayer(\n",
+      "          (attention): RobertaAttention(\n",
+      "            (self): RobertaSelfAttention(\n",
+      "              (query): Linear(in_features=1024, out_features=1024, bias=True)\n",
+      "              (key): Linear(in_features=1024, out_features=1024, bias=True)\n",
+      "              (value): Linear(in_features=1024, out_features=1024, bias=True)\n",
+      "              (dropout): Dropout(p=0.1, inplace=False)\n",
+      "            )\n",
+      "            (output): RobertaSelfOutput(\n",
+      "              (dense): Linear(in_features=1024, out_features=1024, bias=True)\n",
+      "              (LayerNorm): LayerNorm((1024,), eps=1e-05, elementwise_affine=True)\n",
+      "              (dropout): Dropout(p=0.1, inplace=False)\n",
+      "            )\n",
+      "          )\n",
+      "          (intermediate): RobertaIntermediate(\n",
+      "            (dense): Linear(in_features=1024, out_features=4096, bias=True)\n",
+      "            (intermediate_act_fn): GELUActivation()\n",
+      "          )\n",
+      "          (output): RobertaOutput(\n",
+      "            (dense): Linear(in_features=4096, out_features=1024, bias=True)\n",
+      "            (LayerNorm): LayerNorm((1024,), eps=1e-05, elementwise_affine=True)\n",
+      "            (dropout): Dropout(p=0.1, inplace=False)\n",
+      "          )\n",
+      "        )\n",
+      "        (15): RobertaLayer(\n",
+      "          (attention): RobertaAttention(\n",
+      "            (self): RobertaSelfAttention(\n",
+      "              (query): Linear(in_features=1024, out_features=1024, bias=True)\n",
+      "              (key): Linear(in_features=1024, out_features=1024, bias=True)\n",
+      "              (value): Linear(in_features=1024, out_features=1024, bias=True)\n",
+      "              (dropout): Dropout(p=0.1, inplace=False)\n",
+      "            )\n",
+      "            (output): RobertaSelfOutput(\n",
+      "              (dense): Linear(in_features=1024, out_features=1024, bias=True)\n",
+      "              (LayerNorm): LayerNorm((1024,), eps=1e-05, elementwise_affine=True)\n",
+      "              (dropout): Dropout(p=0.1, inplace=False)\n",
+      "            )\n",
+      "          )\n",
+      "          (intermediate): RobertaIntermediate(\n",
+      "            (dense): Linear(in_features=1024, out_features=4096, bias=True)\n",
+      "            (intermediate_act_fn): GELUActivation()\n",
+      "          )\n",
+      "          (output): RobertaOutput(\n",
+      "            (dense): Linear(in_features=4096, out_features=1024, bias=True)\n",
+      "            (LayerNorm): LayerNorm((1024,), eps=1e-05, elementwise_affine=True)\n",
+      "            (dropout): Dropout(p=0.1, inplace=False)\n",
+      "          )\n",
+      "        )\n",
+      "        (16): RobertaLayer(\n",
+      "          (attention): RobertaAttention(\n",
+      "            (self): RobertaSelfAttention(\n",
+      "              (query): Linear(in_features=1024, out_features=1024, bias=True)\n",
+      "              (key): Linear(in_features=1024, out_features=1024, bias=True)\n",
+      "              (value): Linear(in_features=1024, out_features=1024, bias=True)\n",
+      "              (dropout): Dropout(p=0.1, inplace=False)\n",
+      "            )\n",
+      "            (output): RobertaSelfOutput(\n",
+      "              (dense): Linear(in_features=1024, out_features=1024, bias=True)\n",
+      "              (LayerNorm): LayerNorm((1024,), eps=1e-05, elementwise_affine=True)\n",
+      "              (dropout): Dropout(p=0.1, inplace=False)\n",
+      "            )\n",
+      "          )\n",
+      "          (intermediate): RobertaIntermediate(\n",
+      "            (dense): Linear(in_features=1024, out_features=4096, bias=True)\n",
+      "            (intermediate_act_fn): GELUActivation()\n",
+      "          )\n",
+      "          (output): RobertaOutput(\n",
+      "            (dense): Linear(in_features=4096, out_features=1024, bias=True)\n",
+      "            (LayerNorm): LayerNorm((1024,), eps=1e-05, elementwise_affine=True)\n",
+      "            (dropout): Dropout(p=0.1, inplace=False)\n",
+      "          )\n",
+      "        )\n",
+      "        (17): RobertaLayer(\n",
+      "          (attention): RobertaAttention(\n",
+      "            (self): RobertaSelfAttention(\n",
+      "              (query): Linear(in_features=1024, out_features=1024, bias=True)\n",
+      "              (key): Linear(in_features=1024, out_features=1024, bias=True)\n",
+      "              (value): Linear(in_features=1024, out_features=1024, bias=True)\n",
+      "              (dropout): Dropout(p=0.1, inplace=False)\n",
+      "            )\n",
+      "            (output): RobertaSelfOutput(\n",
+      "              (dense): Linear(in_features=1024, out_features=1024, bias=True)\n",
+      "              (LayerNorm): LayerNorm((1024,), eps=1e-05, elementwise_affine=True)\n",
+      "              (dropout): Dropout(p=0.1, inplace=False)\n",
+      "            )\n",
+      "          )\n",
+      "          (intermediate): RobertaIntermediate(\n",
+      "            (dense): Linear(in_features=1024, out_features=4096, bias=True)\n",
+      "            (intermediate_act_fn): GELUActivation()\n",
+      "          )\n",
+      "          (output): RobertaOutput(\n",
+      "            (dense): Linear(in_features=4096, out_features=1024, bias=True)\n",
+      "            (LayerNorm): LayerNorm((1024,), eps=1e-05, elementwise_affine=True)\n",
+      "            (dropout): Dropout(p=0.1, inplace=False)\n",
+      "          )\n",
+      "        )\n",
+      "        (18): RobertaLayer(\n",
+      "          (attention): RobertaAttention(\n",
+      "            (self): RobertaSelfAttention(\n",
+      "              (query): Linear(in_features=1024, out_features=1024, bias=True)\n",
+      "              (key): Linear(in_features=1024, out_features=1024, bias=True)\n",
+      "              (value): Linear(in_features=1024, out_features=1024, bias=True)\n",
+      "              (dropout): Dropout(p=0.1, inplace=False)\n",
+      "            )\n",
+      "            (output): RobertaSelfOutput(\n",
+      "              (dense): Linear(in_features=1024, out_features=1024, bias=True)\n",
+      "              (LayerNorm): LayerNorm((1024,), eps=1e-05, elementwise_affine=True)\n",
+      "              (dropout): Dropout(p=0.1, inplace=False)\n",
+      "            )\n",
+      "          )\n",
+      "          (intermediate): RobertaIntermediate(\n",
+      "            (dense): Linear(in_features=1024, out_features=4096, bias=True)\n",
+      "            (intermediate_act_fn): GELUActivation()\n",
+      "          )\n",
+      "          (output): RobertaOutput(\n",
+      "            (dense): Linear(in_features=4096, out_features=1024, bias=True)\n",
+      "            (LayerNorm): LayerNorm((1024,), eps=1e-05, elementwise_affine=True)\n",
+      "            (dropout): Dropout(p=0.1, inplace=False)\n",
+      "          )\n",
+      "        )\n",
+      "        (19): RobertaLayer(\n",
+      "          (attention): RobertaAttention(\n",
+      "            (self): RobertaSelfAttention(\n",
+      "              (query): Linear(in_features=1024, out_features=1024, bias=True)\n",
+      "              (key): Linear(in_features=1024, out_features=1024, bias=True)\n",
+      "              (value): Linear(in_features=1024, out_features=1024, bias=True)\n",
+      "              (dropout): Dropout(p=0.1, inplace=False)\n",
+      "            )\n",
+      "            (output): RobertaSelfOutput(\n",
+      "              (dense): Linear(in_features=1024, out_features=1024, bias=True)\n",
+      "              (LayerNorm): LayerNorm((1024,), eps=1e-05, elementwise_affine=True)\n",
+      "              (dropout): Dropout(p=0.1, inplace=False)\n",
+      "            )\n",
+      "          )\n",
+      "          (intermediate): RobertaIntermediate(\n",
+      "            (dense): Linear(in_features=1024, out_features=4096, bias=True)\n",
+      "            (intermediate_act_fn): GELUActivation()\n",
+      "          )\n",
+      "          (output): RobertaOutput(\n",
+      "            (dense): Linear(in_features=4096, out_features=1024, bias=True)\n",
+      "            (LayerNorm): LayerNorm((1024,), eps=1e-05, elementwise_affine=True)\n",
+      "            (dropout): Dropout(p=0.1, inplace=False)\n",
+      "          )\n",
+      "        )\n",
+      "        (20): RobertaLayer(\n",
+      "          (attention): RobertaAttention(\n",
+      "            (self): RobertaSelfAttention(\n",
+      "              (query): Linear(in_features=1024, out_features=1024, bias=True)\n",
+      "              (key): Linear(in_features=1024, out_features=1024, bias=True)\n",
+      "              (value): Linear(in_features=1024, out_features=1024, bias=True)\n",
+      "              (dropout): Dropout(p=0.1, inplace=False)\n",
+      "            )\n",
+      "            (output): RobertaSelfOutput(\n",
+      "              (dense): Linear(in_features=1024, out_features=1024, bias=True)\n",
+      "              (LayerNorm): LayerNorm((1024,), eps=1e-05, elementwise_affine=True)\n",
+      "              (dropout): Dropout(p=0.1, inplace=False)\n",
+      "            )\n",
+      "          )\n",
+      "          (intermediate): RobertaIntermediate(\n",
+      "            (dense): Linear(in_features=1024, out_features=4096, bias=True)\n",
+      "            (intermediate_act_fn): GELUActivation()\n",
+      "          )\n",
+      "          (output): RobertaOutput(\n",
+      "            (dense): Linear(in_features=4096, out_features=1024, bias=True)\n",
+      "            (LayerNorm): LayerNorm((1024,), eps=1e-05, elementwise_affine=True)\n",
+      "            (dropout): Dropout(p=0.1, inplace=False)\n",
+      "          )\n",
+      "        )\n",
+      "        (21): RobertaLayer(\n",
+      "          (attention): RobertaAttention(\n",
+      "            (self): RobertaSelfAttention(\n",
+      "              (query): Linear(in_features=1024, out_features=1024, bias=True)\n",
+      "              (key): Linear(in_features=1024, out_features=1024, bias=True)\n",
+      "              (value): Linear(in_features=1024, out_features=1024, bias=True)\n",
+      "              (dropout): Dropout(p=0.1, inplace=False)\n",
+      "            )\n",
+      "            (output): RobertaSelfOutput(\n",
+      "              (dense): Linear(in_features=1024, out_features=1024, bias=True)\n",
+      "              (LayerNorm): LayerNorm((1024,), eps=1e-05, elementwise_affine=True)\n",
+      "              (dropout): Dropout(p=0.1, inplace=False)\n",
+      "            )\n",
+      "          )\n",
+      "          (intermediate): RobertaIntermediate(\n",
+      "            (dense): Linear(in_features=1024, out_features=4096, bias=True)\n",
+      "            (intermediate_act_fn): GELUActivation()\n",
+      "          )\n",
+      "          (output): RobertaOutput(\n",
+      "            (dense): Linear(in_features=4096, out_features=1024, bias=True)\n",
+      "            (LayerNorm): LayerNorm((1024,), eps=1e-05, elementwise_affine=True)\n",
+      "            (dropout): Dropout(p=0.1, inplace=False)\n",
+      "          )\n",
+      "        )\n",
+      "        (22): RobertaLayer(\n",
+      "          (attention): RobertaAttention(\n",
+      "            (self): RobertaSelfAttention(\n",
+      "              (query): Linear(in_features=1024, out_features=1024, bias=True)\n",
+      "              (key): Linear(in_features=1024, out_features=1024, bias=True)\n",
+      "              (value): Linear(in_features=1024, out_features=1024, bias=True)\n",
+      "              (dropout): Dropout(p=0.1, inplace=False)\n",
+      "            )\n",
+      "            (output): RobertaSelfOutput(\n",
+      "              (dense): Linear(in_features=1024, out_features=1024, bias=True)\n",
+      "              (LayerNorm): LayerNorm((1024,), eps=1e-05, elementwise_affine=True)\n",
+      "              (dropout): Dropout(p=0.1, inplace=False)\n",
+      "            )\n",
+      "          )\n",
+      "          (intermediate): RobertaIntermediate(\n",
+      "            (dense): Linear(in_features=1024, out_features=4096, bias=True)\n",
+      "            (intermediate_act_fn): GELUActivation()\n",
+      "          )\n",
+      "          (output): RobertaOutput(\n",
+      "            (dense): Linear(in_features=4096, out_features=1024, bias=True)\n",
+      "            (LayerNorm): LayerNorm((1024,), eps=1e-05, elementwise_affine=True)\n",
+      "            (dropout): Dropout(p=0.1, inplace=False)\n",
+      "          )\n",
+      "        )\n",
+      "        (23): RobertaLayer(\n",
+      "          (attention): RobertaAttention(\n",
+      "            (self): RobertaSelfAttention(\n",
+      "              (query): Linear(in_features=1024, out_features=1024, bias=True)\n",
+      "              (key): Linear(in_features=1024, out_features=1024, bias=True)\n",
+      "              (value): Linear(in_features=1024, out_features=1024, bias=True)\n",
+      "              (dropout): Dropout(p=0.1, inplace=False)\n",
+      "            )\n",
+      "            (output): RobertaSelfOutput(\n",
+      "              (dense): Linear(in_features=1024, out_features=1024, bias=True)\n",
+      "              (LayerNorm): LayerNorm((1024,), eps=1e-05, elementwise_affine=True)\n",
+      "              (dropout): Dropout(p=0.1, inplace=False)\n",
+      "            )\n",
+      "          )\n",
+      "          (intermediate): RobertaIntermediate(\n",
+      "            (dense): Linear(in_features=1024, out_features=4096, bias=True)\n",
+      "            (intermediate_act_fn): GELUActivation()\n",
+      "          )\n",
+      "          (output): RobertaOutput(\n",
+      "            (dense): Linear(in_features=4096, out_features=1024, bias=True)\n",
+      "            (LayerNorm): LayerNorm((1024,), eps=1e-05, elementwise_affine=True)\n",
+      "            (dropout): Dropout(p=0.1, inplace=False)\n",
+      "          )\n",
+      "        )\n",
+      "      )\n",
+      "    )\n",
+      "    (pooler): RobertaPooler(\n",
+      "      (dense): Linear(in_features=1024, out_features=1024, bias=True)\n",
+      "      (activation): Tanh()\n",
+      "    )\n",
+      "  )\n",
+      "  (lstm1): LSTM(8, 20, batch_first=True)\n",
+      "  (lstm2): LSTM(1024, 768, batch_first=True)\n",
+      "  (fc1): Linear(in_features=20, out_features=10, bias=True)\n",
+      "  (fc2): Linear(in_features=768, out_features=256, bias=True)\n",
+      "  (fc3): Linear(in_features=266, out_features=128, bias=True)\n",
+      "  (fc4): Linear(in_features=128, out_features=64, bias=True)\n",
+      "  (fc5): Linear(in_features=64, out_features=3, bias=True)\n",
+      ")\n",
+      "409\n"
+     ]
+    }
+   ],
    "source": [
     "print(model)\n",
     "print(len(list(model.parameters())))\n",
@@ -889,7 +1500,7 @@
   },
   {
    "cell_type": "markdown",
-   "id": "c4a4f893",
+   "id": "c3759de8",
    "metadata": {},
    "source": [
     "## Train model"
@@ -897,8 +1508,8 @@
   },
   {
    "cell_type": "code",
…
