…
+    "                 hidden_dim1 = 20, hidden_dim2 = 768, hidden_dim3 = 128, hidden_dim4 = 64,\n",
+    "                 num_layers1 = 1, num_layers2 = 1, output_dim1 = 10, output_dim2 = 256)\n",
     "\n",
     "\n",
     "    \n",
@@ -754,1044 +579,20 @@
   },
   {
    "cell_type": "code",
-   "execution_count": 75,
-   "id": "79b6a8b9",
-   "metadata": {
-    "collapsed": true
-   },
-   "outputs": [
-    {
-     "name": "stdout",
-     "output_type": "stream",
-     "text": [
-      "SiameseModel(\n",
-      "  (text_encoder): RobertaModel(\n",
-      "    (embeddings): RobertaEmbeddings(\n",
-      "      (word_embeddings): Embedding(50265, 1024, padding_idx=1)\n",
-      "      (position_embeddings): Embedding(514, 1024, padding_idx=1)\n",
-      "      (token_type_embeddings): Embedding(1, 1024)\n",
-      "      (LayerNorm): LayerNorm((1024,), eps=1e-05, elementwise_affine=True)\n",
-      "      (dropout): Dropout(p=0.1, inplace=False)\n",
-      "    )\n",
-      "    (encoder): RobertaEncoder(\n",
-      "      (layer): ModuleList(\n",
-      "        (0): RobertaLayer(\n",
-      "          (attention): RobertaAttention(\n",
-      "            (self): RobertaSelfAttention(\n",
-      "              (query): Linear(in_features=1024, out_features=1024, bias=True)\n",
-      "              (key): Linear(in_features=1024, out_features=1024, bias=True)\n",
-      "              (value): Linear(in_features=1024, out_features=1024, bias=True)\n",
-      "              (dropout): Dropout(p=0.1, inplace=False)\n",
-      "            )\n",
-      "            (output): RobertaSelfOutput(\n",
-      "              (dense): Linear(in_features=1024, out_features=1024, bias=True)\n",
-      "              (LayerNorm): LayerNorm((1024,), eps=1e-05, elementwise_affine=True)\n",
-      "              (dropout): Dropout(p=0.1, inplace=False)\n",
-      "            )\n",
-      "          )\n",
-      "          (intermediate): RobertaIntermediate(\n",
-      "            (dense): Linear(in_features=1024, out_features=4096, bias=True)\n",
-      "            (intermediate_act_fn): GELUActivation()\n",
-      "          )\n",
-      "          (output): RobertaOutput(\n",
-      "            (dense): Linear(in_features=4096, out_features=1024, bias=True)\n",
-      "            (LayerNorm): LayerNorm((1024,), eps=1e-05, elementwise_affine=True)\n",
-      "            (dropout): Dropout(p=0.1, inplace=False)\n",
-      "          )\n",
-      "        )\n",
-      "        (1): RobertaLayer(\n",
-      "          (attention): RobertaAttention(\n",
-      "            (self): RobertaSelfAttention(\n",
-      "              (query): Linear(in_features=1024, out_features=1024, bias=True)\n",
-      "              (key): Linear(in_features=1024, out_features=1024, bias=True)\n",
-      "              (value): Linear(in_features=1024, out_features=1024, bias=True)\n",
-      "              (dropout): Dropout(p=0.1, inplace=False)\n",
-      "            )\n",
-      "            (output): RobertaSelfOutput(\n",
-      "              (dense): Linear(in_features=1024, out_features=1024, bias=True)\n",
-      "              (LayerNorm): LayerNorm((1024,), eps=1e-05, elementwise_affine=True)\n",
-      "              (dropout): Dropout(p=0.1, inplace=False)\n",
-      "            )\n",
-      "          )\n",
-      "          (intermediate): RobertaIntermediate(\n",
-      "            (dense): Linear(in_features=1024, out_features=4096, bias=True)\n",
-      "            (intermediate_act_fn): GELUActivation()\n",
-      "          )\n",
-      "          (output): RobertaOutput(\n",
-      "            (dense): Linear(in_features=4096, out_features=1024, bias=True)\n",
-      "            (LayerNorm): LayerNorm((1024,), eps=1e-05, elementwise_affine=True)\n",
-      "            (dropout): Dropout(p=0.1, inplace=False)\n",
-      "          )\n",
-      "        )\n",
-      "        (2): RobertaLayer(\n",
-      "          (attention): RobertaAttention(\n",
-      "            (self): RobertaSelfAttention(\n",
-      "              (query): Linear(in_features=1024, out_features=1024, bias=True)\n",
-      "              (key): Linear(in_features=1024, out_features=1024, bias=True)\n",
-      "              (value): Linear(in_features=1024, out_features=1024, bias=True)\n",
-      "              (dropout): Dropout(p=0.1, inplace=False)\n",
-      "            )\n",
-      "            (output): RobertaSelfOutput(\n",
-      "              (dense): Linear(in_features=1024, out_features=1024, bias=True)\n",
-      "              (LayerNorm): LayerNorm((1024,), eps=1e-05, elementwise_affine=True)\n",
-      "              (dropout): Dropout(p=0.1, inplace=False)\n",
-      "            )\n",
-      "          )\n",
-      "          (intermediate): RobertaIntermediate(\n",
-      "            (dense): Linear(in_features=1024, out_features=4096, bias=True)\n",
-      "            (intermediate_act_fn): GELUActivation()\n",
-      "          )\n",
-      "          (output): RobertaOutput(\n",
-      "            (dense): Linear(in_features=4096, out_features=1024, bias=True)\n",
-      "            (LayerNorm): LayerNorm((1024,), eps=1e-05, elementwise_affine=True)\n",
-      "            (dropout): Dropout(p=0.1, inplace=False)\n",
-      "          )\n",
-      "        )\n",
-      "        (3): RobertaLayer(\n",
-      "          (attention): RobertaAttention(\n",
-      "            (self): RobertaSelfAttention(\n",
-      "              (query): Linear(in_features=1024, out_features=1024, bias=True)\n",
-      "              (key): Linear(in_features=1024, out_features=1024, bias=True)\n",
-      "              (value): Linear(in_features=1024, out_features=1024, bias=True)\n",
-      "              (dropout): Dropout(p=0.1, inplace=False)\n",
-      "            )\n",
-      "            (output): RobertaSelfOutput(\n",
-      "              (dense): Linear(in_features=1024, out_features=1024, bias=True)\n",
-      "              (LayerNorm): LayerNorm((1024,), eps=1e-05, elementwise_affine=True)\n",
-      "              (dropout): Dropout(p=0.1, inplace=False)\n",
-      "            )\n",
-      "          )\n",
-      "          (intermediate): RobertaIntermediate(\n",
-      "            (dense): Linear(in_features=1024, out_features=4096, bias=True)\n",
-      "            (intermediate_act_fn): GELUActivation()\n",
-      "          )\n",
-      "          (output): RobertaOutput(\n",
-      "            (dense): Linear(in_features=4096, out_features=1024, bias=True)\n",
-      "            (LayerNorm): LayerNorm((1024,), eps=1e-05, elementwise_affine=True)\n",
-      "            (dropout): Dropout(p=0.1, inplace=False)\n",
-      "          )\n",
-      "        )\n",
-      "        (4): RobertaLayer(\n",
-      "          (attention): RobertaAttention(\n",
-      "            (self): RobertaSelfAttention(\n",
-      "              (query): Linear(in_features=1024, out_features=1024, bias=True)\n",
-      "              (key): Linear(in_features=1024, out_features=1024, bias=True)\n",
-      "              (value): Linear(in_features=1024, out_features=1024, bias=True)\n",
-      "              (dropout): Dropout(p=0.1, inplace=False)\n",
-      "            )\n",
-      "            (output): RobertaSelfOutput(\n",
-      "              (dense): Linear(in_features=1024, out_features=1024, bias=True)\n",
-      "              (LayerNorm): LayerNorm((1024,), eps=1e-05, elementwise_affine=True)\n",
-      "              (dropout): Dropout(p=0.1, inplace=False)\n",
-      "            )\n",
-      "          )\n",
-      "          (intermediate): RobertaIntermediate(\n",
-      "            (dense): Linear(in_features=1024, out_features=4096, bias=True)\n",
-      "            (intermediate_act_fn): GELUActivation()\n",
-      "          )\n",
-      "          (output): RobertaOutput(\n",
-      "            (dense): Linear(in_features=4096, out_features=1024, bias=True)\n",
-      "            (LayerNorm): LayerNorm((1024,), eps=1e-05, elementwise_affine=True)\n",
-      "            (dropout): Dropout(p=0.1, inplace=False)\n",
-      "          )\n",
-      "        )\n",
-      "        (5): RobertaLayer(\n",
-      "          (attention): RobertaAttention(\n",
-      "            (self): RobertaSelfAttention(\n",
-      "              (query): Linear(in_features=1024, out_features=1024, bias=True)\n",
-      "              (key): Linear(in_features=1024, out_features=1024, bias=True)\n",
-      "              (value): Linear(in_features=1024, out_features=1024, bias=True)\n",
-      "              (dropout): Dropout(p=0.1, inplace=False)\n",
-      "            )\n",
-      "            (output): RobertaSelfOutput(\n",
-      "              (dense): Linear(in_features=1024, out_features=1024, bias=True)\n",
-      "              (LayerNorm): LayerNorm((1024,), eps=1e-05, elementwise_affine=True)\n",
-      "              (dropout): Dropout(p=0.1, inplace=False)\n",
-      "            )\n",
-      "          )\n",
-      "          (intermediate): RobertaIntermediate(\n",
-      "            (dense): Linear(in_features=1024, out_features=4096, bias=True)\n",
-      "            (intermediate_act_fn): GELUActivation()\n",
-      "          )\n",
-      "          (output): RobertaOutput(\n",
-      "            (dense): Linear(in_features=4096, out_features=1024, bias=True)\n",
-      "            (LayerNorm): LayerNorm((1024,), eps=1e-05, elementwise_affine=True)\n",
-      "            (dropout): Dropout(p=0.1, inplace=False)\n",
-      "          )\n",
-      "        )\n",
-      "        (6): RobertaLayer(\n",
-      "          (attention): RobertaAttention(\n",
-      "            (self): RobertaSelfAttention(\n",
-      "              (query): Linear(in_features=1024, out_features=1024, bias=True)\n",
-      "              (key): Linear(in_features=1024, out_features=1024, bias=True)\n",
-      "              (value): Linear(in_features=1024, out_features=1024, bias=True)\n",
-      "              (dropout): Dropout(p=0.1, inplace=False)\n",
-      "            )\n",
-      "            (output): RobertaSelfOutput(\n",
-      "              (dense): Linear(in_features=1024, out_features=1024, bias=True)\n",
-      "              (LayerNorm): LayerNorm((1024,), eps=1e-05, elementwise_affine=True)\n",
-      "              (dropout): Dropout(p=0.1, inplace=False)\n",
-      "            )\n",
-      "          )\n",
-      "          (intermediate): RobertaIntermediate(\n",
-      "            (dense): Linear(in_features=1024, out_features=4096, bias=True)\n",
-      "            (intermediate_act_fn): GELUActivation()\n",
-      "          )\n",
-      "          (output): RobertaOutput(\n",
-      "            (dense): Linear(in_features=4096, out_features=1024, bias=True)\n",
-      "            (LayerNorm): LayerNorm((1024,), eps=1e-05, elementwise_affine=True)\n",
-      "            (dropout): Dropout(p=0.1, inplace=False)\n",
-      "          )\n",
-      "        )\n",
-      "        (7): RobertaLayer(\n",
-      "          (attention): RobertaAttention(\n",
-      "            (self): RobertaSelfAttention(\n",
-      "              (query): Linear(in_features=1024, out_features=1024, bias=True)\n",
-      "              (key): Linear(in_features=1024, out_features=1024, bias=True)\n",
-      "              (value): Linear(in_features=1024, out_features=1024, bias=True)\n",
-      "              (dropout): Dropout(p=0.1, inplace=False)\n",
-      "            )\n",
-      "            (output): RobertaSelfOutput(\n",
-      "              (dense): Linear(in_features=1024, out_features=1024, bias=True)\n",
-      "              (LayerNorm): LayerNorm((1024,), eps=1e-05, elementwise_affine=True)\n",
-      "              (dropout): Dropout(p=0.1, inplace=False)\n",
-      "            )\n",
-      "          )\n",
-      "          (intermediate): RobertaIntermediate(\n",
-      "            (dense): Linear(in_features=1024, out_features=4096, bias=True)\n",
-      "            (intermediate_act_fn): GELUActivation()\n",
-      "          )\n",
-      "          (output): RobertaOutput(\n",
-      "            (dense): Linear(in_features=4096, out_features=1024, bias=True)\n",
-      "            (LayerNorm): LayerNorm((1024,), eps=1e-05, elementwise_affine=True)\n",
-      "            (dropout): Dropout(p=0.1, inplace=False)\n",
-      "          )\n",
-      "        )\n",
-      "        (8): RobertaLayer(\n",
-      "          (attention): RobertaAttention(\n",
-      "            (self): RobertaSelfAttention(\n",
-      "              (query): Linear(in_features=1024, out_features=1024, bias=True)\n",
-      "              (key): Linear(in_features=1024, out_features=1024, bias=True)\n",
-      "              (value): Linear(in_features=1024, out_features=1024, bias=True)\n",
-      "              (dropout): Dropout(p=0.1, inplace=False)\n",
-      "            )\n",
-      "            (output): RobertaSelfOutput(\n",
-      "              (dense): Linear(in_features=1024, out_features=1024, bias=True)\n",
-      "              (LayerNorm): LayerNorm((1024,), eps=1e-05, elementwise_affine=True)\n",
-      "              (dropout): Dropout(p=0.1, inplace=False)\n",
-      "            )\n",
-      "          )\n",
-      "          (intermediate): RobertaIntermediate(\n",
-      "            (dense): Linear(in_features=1024, out_features=4096, bias=True)\n",
-      "            (intermediate_act_fn): GELUActivation()\n",
-      "          )\n",
-      "          (output): RobertaOutput(\n",
-      "            (dense): Linear(in_features=4096, out_features=1024, bias=True)\n",
-      "            (LayerNorm): LayerNorm((1024,), eps=1e-05, elementwise_affine=True)\n",
-      "            (dropout): Dropout(p=0.1, inplace=False)\n",
-      "          )\n",
-      "        )\n",
-      "        (9): RobertaLayer(\n",
-      "          (attention): RobertaAttention(\n",
-      "            (self): RobertaSelfAttention(\n",
-      "              (query): Linear(in_features=1024, out_features=1024, bias=True)\n",
-      "              (key): Linear(in_features=1024, out_features=1024, bias=True)\n",
-      "              (value): Linear(in_features=1024, out_features=1024, bias=True)\n",
-      "              (dropout): Dropout(p=0.1, inplace=False)\n",
-      "            )\n",
-      "            (output): RobertaSelfOutput(\n",
-      "              (dense): Linear(in_features=1024, out_features=1024, bias=True)\n",
-      "              (LayerNorm): LayerNorm((1024,), eps=1e-05, elementwise_affine=True)\n",
-      "              (dropout): Dropout(p=0.1, inplace=False)\n",
-      "            )\n",
-      "          )\n",
-      "          (intermediate): RobertaIntermediate(\n",
-      "            (dense): Linear(in_features=1024, out_features=4096, bias=True)\n",
-      "            (intermediate_act_fn): GELUActivation()\n",
-      "          )\n",
-      "          (output): RobertaOutput(\n",
-      "            (dense): Linear(in_features=4096, out_features=1024, bias=True)\n",
-      "            (LayerNorm): LayerNorm((1024,), eps=1e-05, elementwise_affine=True)\n",
-      "            (dropout): Dropout(p=0.1, inplace=False)\n",
-      "          )\n",
-      "        )\n",
-      "        (10): RobertaLayer(\n",
-      "          (attention): RobertaAttention(\n",
-      "            (self): RobertaSelfAttention(\n",
-      "              (query): Linear(in_features=1024, out_features=1024, bias=True)\n",
-      "              (key): Linear(in_features=1024, out_features=1024, bias=True)\n",
-      "              (value): Linear(in_features=1024, out_features=1024, bias=True)\n",
-      "              (dropout): Dropout(p=0.1, inplace=False)\n",
-      "            )\n",
-      "            (output): RobertaSelfOutput(\n",
-      "              (dense): Linear(in_features=1024, out_features=1024, bias=True)\n",
-      "              (LayerNorm): LayerNorm((1024,), eps=1e-05, elementwise_affine=True)\n",
-      "              (dropout): Dropout(p=0.1, inplace=False)\n",
-      "            )\n",
-      "          )\n",
-      "          (intermediate): RobertaIntermediate(\n",
-      "            (dense): Linear(in_features=1024, out_features=4096, bias=True)\n",
-      "            (intermediate_act_fn): GELUActivation()\n",
-      "          )\n",
-      "          (output): RobertaOutput(\n",
-      "            (dense): Linear(in_features=4096, out_features=1024, bias=True)\n",
-      "            (LayerNorm): LayerNorm((1024,), eps=1e-05, elementwise_affine=True)\n",
-      "            (dropout): Dropout(p=0.1, inplace=False)\n",
-      "          )\n",
-      "        )\n",
-      "        (11): RobertaLayer(\n",
-      "          (attention): RobertaAttention(\n",
-      "            (self): RobertaSelfAttention(\n",
-      "              (query): Linear(in_features=1024, out_features=1024, bias=True)\n",
-      "              (key): Linear(in_features=1024, out_features=1024, bias=True)\n",
-      "              (value): Linear(in_features=1024, out_features=1024, bias=True)\n",
-      "              (dropout): Dropout(p=0.1, inplace=False)\n",
-      "            )\n",
-      "            (output): RobertaSelfOutput(\n",
-      "              (dense): Linear(in_features=1024, out_features=1024, bias=True)\n",
-      "              (LayerNorm): LayerNorm((1024,), eps=1e-05, elementwise_affine=True)\n",
-      "              (dropout): Dropout(p=0.1, inplace=False)\n",
-      "            )\n",
-      "          )\n",
-      "          (intermediate): RobertaIntermediate(\n",
-      "            (dense): Linear(in_features=1024, out_features=4096, bias=True)\n",
-      "            (intermediate_act_fn): GELUActivation()\n",
-      "          )\n",
-      "          (output): RobertaOutput(\n",
-      "            (dense): Linear(in_features=4096, out_features=1024, bias=True)\n",
-      "            (LayerNorm): LayerNorm((1024,), eps=1e-05, elementwise_affine=True)\n",
-      "            (dropout): Dropout(p=0.1, inplace=False)\n",
-      "          )\n",
-      "        )\n",
-      "        (12): RobertaLayer(\n",
-      "          (attention): RobertaAttention(\n",
-      "            (self): RobertaSelfAttention(\n",
-      "              (query): Linear(in_features=1024, out_features=1024, bias=True)\n",
-      "              (key): Linear(in_features=1024, out_features=1024, bias=True)\n",
-      "              (value): Linear(in_features=1024, out_features=1024, bias=True)\n",
-      "              (dropout): Dropout(p=0.1, inplace=False)\n",
-      "            )\n",
-      "            (output): RobertaSelfOutput(\n",
-      "              (dense): Linear(in_features=1024, out_features=1024, bias=True)\n",
-      "              (LayerNorm): LayerNorm((1024,), eps=1e-05, elementwise_affine=True)\n",
-      "              (dropout): Dropout(p=0.1, inplace=False)\n",
-      "            )\n",
-      "          )\n",
-      "          (intermediate): RobertaIntermediate(\n",
-      "            (dense): Linear(in_features=1024, out_features=4096, bias=True)\n",
-      "            (intermediate_act_fn): GELUActivation()\n",
-      "          )\n",
-      "          (output): RobertaOutput(\n",
-      "            (dense): Linear(in_features=4096, out_features=1024, bias=True)\n",
-      "            (LayerNorm): LayerNorm((1024,), eps=1e-05, elementwise_affine=True)\n",
-      "            (dropout): Dropout(p=0.1, inplace=False)\n",
-      "          )\n",
-      "        )\n",
-      "        (13): RobertaLayer(\n",
-      "          (attention): RobertaAttention(\n",
-      "            (self): RobertaSelfAttention(\n",
-      "              (query): Linear(in_features=1024, out_features=1024, bias=True)\n",
-      "              (key): Linear(in_features=1024, out_features=1024, bias=True)\n",
-      "              (value): Linear(in_features=1024, out_features=1024, bias=True)\n",
-      "              (dropout): Dropout(p=0.1, inplace=False)\n",
-      "            )\n",
-      "            (output): RobertaSelfOutput(\n",
-      "              (dense): Linear(in_features=1024, out_features=1024, bias=True)\n",
-      "              (LayerNorm): LayerNorm((1024,), eps=1e-05, elementwise_affine=True)\n",
-      "              (dropout): Dropout(p=0.1, inplace=False)\n",
-      "            )\n",
-      "          )\n",
-      "          (intermediate): RobertaIntermediate(\n",
-      "            (dense): Linear(in_features=1024, out_features=4096, bias=True)\n",
-      "            (intermediate_act_fn): GELUActivation()\n",
-      "          )\n",
-      "          (output): RobertaOutput(\n",
-      "            (dense): Linear(in_features=4096, out_features=1024, bias=True)\n",
-      "            (LayerNorm): LayerNorm((1024,), eps=1e-05, elementwise_affine=True)\n",
-      "            (dropout): Dropout(p=0.1, inplace=False)\n",
-      "          )\n",
-      "        )\n",
-      "        (14): RobertaLayer(\n",
-      "          (attention): RobertaAttention(\n",
-      "            (self): RobertaSelfAttention(\n",
-      "              (query): Linear(in_features=1024, out_features=1024, bias=True)\n",
-      "              (key): Linear(in_features=1024, out_features=1024, bias=True)\n",
-      "              (value): Linear(in_features=1024, out_features=1024, bias=True)\n",
-      "              (dropout): Dropout(p=0.1, inplace=False)\n",
-      "            )\n",
-      "            (output): RobertaSelfOutput(\n",
-      "              (dense): Linear(in_features=1024, out_features=1024, bias=True)\n",
-      "              (LayerNorm): LayerNorm((1024,), eps=1e-05, elementwise_affine=True)\n",
-      "              (dropout): Dropout(p=0.1, inplace=False)\n",
-      "            )\n",
-      "          )\n",
-      "          (intermediate): RobertaIntermediate(\n",
-      "            (dense): Linear(in_features=1024, out_features=4096, bias=True)\n",
-      "            (intermediate_act_fn): GELUActivation()\n",
-      "          )\n",
-      "          (output): RobertaOutput(\n",
-      "            (dense): Linear(in_features=4096, out_features=1024, bias=True)\n",
-      "            (LayerNorm): LayerNorm((1024,), eps=1e-05, elementwise_affine=True)\n",
-      "            (dropout): Dropout(p=0.1, inplace=False)\n",
-      "          )\n",
-      "        )\n",
-      "        (15): RobertaLayer(\n",
-      "          (attention): RobertaAttention(\n",
-      "            (self): RobertaSelfAttention(\n",
-      "              (query): Linear(in_features=1024, out_features=1024, bias=True)\n",
-      "              (key): Linear(in_features=1024, out_features=1024, bias=True)\n",
-      "              (value): Linear(in_features=1024, out_features=1024, bias=True)\n",
-      "              (dropout): Dropout(p=0.1, inplace=False)\n",
-      "            )\n",
-      "            (output): RobertaSelfOutput(\n",
-      "              (dense): Linear(in_features=1024, out_features=1024, bias=True)\n",
-      "              (LayerNorm): LayerNorm((1024,), eps=1e-05, elementwise_affine=True)\n",
-      "              (dropout): Dropout(p=0.1, inplace=False)\n",
-      "            )\n",
-      "          )\n",
-      "          (intermediate): RobertaIntermediate(\n",
-      "            (dense): Linear(in_features=1024, out_features=4096, bias=True)\n",
-      "            (intermediate_act_fn): GELUActivation()\n",
-      "          )\n",
-      "          (output): RobertaOutput(\n",
-      "            (dense): Linear(in_features=4096, out_features=1024, bias=True)\n",
-      "            (LayerNorm): LayerNorm((1024,), eps=1e-05, elementwise_affine=True)\n",
-      "            (dropout): Dropout(p=0.1, inplace=False)\n",
-      "          )\n",
-      "        )\n",
-      "        (16): RobertaLayer(\n",
-      "          (attention): RobertaAttention(\n",
-      "            (self): RobertaSelfAttention(\n",
-      "              (query): Linear(in_features=1024, out_features=1024, bias=True)\n",
-      "              (key): Linear(in_features=1024, out_features=1024, bias=True)\n",
-      "              (value): Linear(in_features=1024, out_features=1024, bias=True)\n",
-      "              (dropout): Dropout(p=0.1, inplace=False)\n",
-      "            )\n",
-      "            (output): RobertaSelfOutput(\n",
-      "              (dense): Linear(in_features=1024, out_features=1024, bias=True)\n",
-      "              (LayerNorm): LayerNorm((1024,), eps=1e-05, elementwise_affine=True)\n",
-      "              (dropout): Dropout(p=0.1, inplace=False)\n",
-      "            )\n",
-      "          )\n",
-      "          (intermediate): RobertaIntermediate(\n",
-      "            (dense): Linear(in_features=1024, out_features=4096, bias=True)\n",
-      "            (intermediate_act_fn): GELUActivation()\n",
-      "          )\n",
-      "          (output): RobertaOutput(\n",
-      "            (dense): Linear(in_features=4096, out_features=1024, bias=True)\n",
-      "            (LayerNorm): LayerNorm((1024,), eps=1e-05, elementwise_affine=True)\n",
-      "            (dropout): Dropout(p=0.1, inplace=False)\n",
-      "          )\n",
-      "        )\n",
-      "        (17): RobertaLayer(\n",
-      "          (attention): RobertaAttention(\n",
-      "            (self): RobertaSelfAttention(\n",
-      "              (query): Linear(in_features=1024, out_features=1024, bias=True)\n",
-      "              (key): Linear(in_features=1024, out_features=1024, bias=True)\n",
-      "              (value): Linear(in_features=1024, out_features=1024, bias=True)\n",
-      "              (dropout): Dropout(p=0.1, inplace=False)\n",
-      "            )\n",
-      "            (output): RobertaSelfOutput(\n",
-      "              (dense): Linear(in_features=1024, out_features=1024, bias=True)\n",
-      "              (LayerNorm): LayerNorm((1024,), eps=1e-05, elementwise_affine=True)\n",
-      "              (dropout): Dropout(p=0.1, inplace=False)\n",
-      "            )\n",
-      "          )\n",
-      "          (intermediate): RobertaIntermediate(\n",
-      "            (dense): Linear(in_features=1024, out_features=4096, bias=True)\n",
-      "            (intermediate_act_fn): GELUActivation()\n",
-      "          )\n",
-      "          (output): RobertaOutput(\n",
-      "            (dense): Linear(in_features=4096, out_features=1024, bias=True)\n",
-      "            (LayerNorm): LayerNorm((1024,), eps=1e-05, elementwise_affine=True)\n",
-      "            (dropout): Dropout(p=0.1, inplace=False)\n",
-      "          )\n",
-      "        )\n",
-      "        (18): RobertaLayer(\n",
-      "          (attention): RobertaAttention(\n",
-      "            (self): RobertaSelfAttention(\n",
-      "              (query): Linear(in_features=1024, out_features=1024, bias=True)\n",
-      "              (key): Linear(in_features=1024, out_features=1024, bias=True)\n",
-      "              (value): Linear(in_features=1024, out_features=1024, bias=True)\n",
-      "              (dropout): Dropout(p=0.1, inplace=False)\n",
-      "            )\n",
-      "            (output): RobertaSelfOutput(\n",
-      "              (dense): Linear(in_features=1024, out_features=1024, bias=True)\n",
-      "              (LayerNorm): LayerNorm((1024,), eps=1e-05, elementwise_affine=True)\n",
-      "              (dropout): Dropout(p=0.1, inplace=False)\n",
-      "            )\n",
-      "          )\n",
-      "          (intermediate): RobertaIntermediate(\n",
-      "            (dense): Linear(in_features=1024, out_features=4096, bias=True)\n",
-      "            (intermediate_act_fn): GELUActivation()\n",
-      "          )\n",
-      "          (output): RobertaOutput(\n",
-      "            (dense): Linear(in_features=4096, out_features=1024, bias=True)\n",
-      "            (LayerNorm): LayerNorm((1024,), eps=1e-05, elementwise_affine=True)\n",
-      "            (dropout): Dropout(p=0.1, inplace=False)\n",
-      "          )\n",
-      "        )\n",
-      "        (19): RobertaLayer(\n",
-      "          (attention): RobertaAttention(\n",
-      "            (self): RobertaSelfAttention(\n",
-      "              (query): Linear(in_features=1024, out_features=1024, bias=True)\n",
-      "              (key): Linear(in_features=1024, out_features=1024, bias=True)\n",
-      "              (value): Linear(in_features=1024, out_features=1024, bias=True)\n",
-      "              (dropout): Dropout(p=0.1, inplace=False)\n",
-      "            )\n",
-      "            (output): RobertaSelfOutput(\n",
-      "              (dense): Linear(in_features=1024, out_features=1024, bias=True)\n",
-      "              (LayerNorm): LayerNorm((1024,), eps=1e-05, elementwise_affine=True)\n",
-      "              (dropout): Dropout(p=0.1, inplace=False)\n",
-      "            )\n",
-      "          )\n",
-      "          (intermediate): RobertaIntermediate(\n",
-      "            (dense): Linear(in_features=1024, out_features=4096, bias=True)\n",
-      "            (intermediate_act_fn): GELUActivation()\n",
-      "          )\n",
-      "          (output): RobertaOutput(\n",
-      "            (dense): Linear(in_features=4096, out_features=1024, bias=True)\n",
-      "            (LayerNorm): LayerNorm((1024,), eps=1e-05, elementwise_affine=True)\n",
-      "            (dropout): Dropout(p=0.1, inplace=False)\n",
-      "          )\n",
-      "        )\n",
-      "        (20): RobertaLayer(\n",
-      "          (attention): RobertaAttention(\n",
-      "            (self): RobertaSelfAttention(\n",
-      "              (query): Linear(in_features=1024, out_features=1024, bias=True)\n",
-      "              (key): Linear(in_features=1024, out_features=1024, bias=True)\n",
-      "              (value): Linear(in_features=1024, out_features=1024, bias=True)\n",
-      "              (dropout): Dropout(p=0.1, inplace=False)\n",
-      "            )\n",
-      "            (output): RobertaSelfOutput(\n",
-      "              (dense): Linear(in_features=1024, out_features=1024, bias=True)\n",
-      "              (LayerNorm): LayerNorm((1024,), eps=1e-05, elementwise_affine=True)\n",
-      "              (dropout): Dropout(p=0.1, inplace=False)\n",
-      "            )\n",
-      "          )\n",
-      "          (intermediate): RobertaIntermediate(\n",
-      "            (dense): Linear(in_features=1024, out_features=4096, bias=True)\n",
-      "            (intermediate_act_fn): GELUActivation()\n",
-      "          )\n",
-      "          (output): RobertaOutput(\n",
-      "            (dense): Linear(in_features=4096, out_features=1024, bias=True)\n",
-      "            (LayerNorm): LayerNorm((1024,), eps=1e-05, elementwise_affine=True)\n",
-      "            (dropout): Dropout(p=0.1, inplace=False)\n",
-      "          )\n",
-      "        )\n",
-      "        (21): RobertaLayer(\n",
-      "          (attention): RobertaAttention(\n",
-      "            (self): RobertaSelfAttention(\n",
-      "              (query): Linear(in_features=1024, out_features=1024, bias=True)\n",
-      "              (key): Linear(in_features=1024, out_features=1024, bias=True)\n",
-      "              (value): Linear(in_features=1024, out_features=1024, bias=True)\n",
-      "              (dropout): Dropout(p=0.1, inplace=False)\n",
-      "            )\n",
-      "            (output): RobertaSelfOutput(\n",
-      "              (dense): Linear(in_features=1024, out_features=1024, bias=True)\n",
-      "              (LayerNorm): LayerNorm((1024,), eps=1e-05, elementwise_affine=True)\n",
-      "              (dropout): Dropout(p=0.1, inplace=False)\n",
-      "            )\n",
-      "          )\n",
-      "          (intermediate): RobertaIntermediate(\n",
-      "            (dense): Linear(in_features=1024, out_features=4096, bias=True)\n",
-      "            (intermediate_act_fn): GELUActivation()\n",
-      "          )\n",
-      "          (output): RobertaOutput(\n",
-      "            (dense): Linear(in_features=4096, out_features=1024, bias=True)\n",
-      "            (LayerNorm): LayerNorm((1024,), eps=1e-05, elementwise_affine=True)\n",
-      "            (dropout): Dropout(p=0.1, inplace=False)\n",
-      "          )\n",
-      "        )\n",
-      "        (22): RobertaLayer(\n",
-      "          (attention): RobertaAttention(\n",
-      "            (self): RobertaSelfAttention(\n",
-      "              (query): Linear(in_features=1024, out_features=1024, bias=True)\n",
-      "              (key): Linear(in_features=1024, out_features=1024, bias=True)\n",
-      "              (value): Linear(in_features=1024, out_features=1024, bias=True)\n",
-      "              (dropout): Dropout(p=0.1, inplace=False)\n",
-      "            )\n",
-      "            (output): RobertaSelfOutput(\n",
-      "              (dense): Linear(in_features=1024, out_features=1024, bias=True)\n",
-      "              (LayerNorm): LayerNorm((1024,), eps=1e-05, elementwise_affine=True)\n",
-      "              (dropout): Dropout(p=0.1, inplace=False)\n",
-      "            )\n",
-      "          )\n",
-      "          (intermediate): RobertaIntermediate(\n",
-      "            (dense): Linear(in_features=1024, out_features=4096, bias=True)\n",
-      "            (intermediate_act_fn): GELUActivation()\n",
-      "          )\n",
-      "          (output): RobertaOutput(\n",
-      "            (dense): Linear(in_features=4096, out_features=1024, bias=True)\n",
-      "            (LayerNorm): LayerNorm((1024,), eps=1e-05, elementwise_affine=True)\n",
-      "            (dropout): Dropout(p=0.1, inplace=False)\n",
-      "          )\n",
-      "        )\n",
-      "        (23): RobertaLayer(\n",
-      "          (attention): RobertaAttention(\n",
-      "            (self): RobertaSelfAttention(\n",
-      "              (query): Linear(in_features=1024, out_features=1024, bias=True)\n",
-      "              (key): Linear(in_features=1024, out_features=1024, bias=True)\n",
-      "              (value): Linear(in_features=1024, out_features=1024, bias=True)\n",
-      "              (dropout): Dropout(p=0.1, inplace=False)\n",
-      "            )\n",
-      "            (output): RobertaSelfOutput(\n",
-      "              (dense): Linear(in_features=1024, out_features=1024, bias=True)\n",
-      "              (LayerNorm): LayerNorm((1024,), eps=1e-05, elementwise_affine=True)\n",
-      "              (dropout): Dropout(p=0.1, inplace=False)\n",
-      "            )\n",
-      "          )\n",
-      "          (intermediate): RobertaIntermediate(\n",
-      "            (dense): Linear(in_features=1024, out_features=4096, bias=True)\n",
-      "            (intermediate_act_fn): GELUActivation()\n",
-      "          )\n",
-      "          (output): RobertaOutput(\n",
-      "            (dense): Linear(in_features=4096, out_features=1024, bias=True)\n",
-      "            (LayerNorm): LayerNorm((1024,), eps=1e-05, elementwise_affine=True)\n",
-      "            (dropout): Dropout(p=0.1, inplace=False)\n",
-      "          )\n",
-      "        )\n",
-      "      )\n",
-      "    )\n",
-      "    (pooler): RobertaPooler(\n",
-      "      (dense): Linear(in_features=1024, out_features=1024, bias=True)\n",
-      "      (activation): Tanh()\n",
-      "    )\n",
-      "  )\n",
-      "  (lstm1): LSTM(8, 10, batch_first=True)\n",
-      "  (lstm2): LSTM(768, 800, batch_first=True)\n",
-      "  (fc1): Linear(in_features=10, out_features=50, bias=True)\n",
-      "  (fc2): Linear(in_features=800, out_features=50, bias=True)\n",
-      "  (fc3): Linear(in_features=100, out_features=500, bias=True)\n",
-      "  (fc4): Linear(in_features=500, out_features=3, bias=True)\n",
-      ")\n",
-      "407\n",
-      "torch.Size([50265, 1024])\n",
-      "torch.Size([514, 1024])\n",
-      "torch.Size([1, 1024])\n",
-      "torch.Size([1024])\n",
-      "torch.Size([1024])\n",
-      "torch.Size([1024, 1024])\n",
-      "torch.Size([1024])\n",
-      "torch.Size([1024, 1024])\n",
-      "torch.Size([1024])\n",
-      "torch.Size([1024, 1024])\n",
…
